HousePrice.pt (torch, 41882 bytes, 21 tensors)

weight f4 [15, 8]
000000 63 c2 b3 bc cf d9 a7 3b 96 66 f3 bc 0f ac 24 bd
       -0.021943277 0.0051224004 -0.029712003 -0.04020315
000010 f9 f5 44 3d 17 87 54 3d ac 20 cc 3d 88 33 5c bd
       0.04808614 0.051886644 0.09967169 -0.05376008
000020 9e 7d 8b 3e e9 17 88 3e 59 71 97 be f1 23 b7 3e
       0.27244276 0.26580742 -0.29578665 0.3576961
000030 32 0e 51 3d c7 5c 93 bd e0 4a fd bc 7e a6 fc be
       0.05103893 -0.0719543 -0.030919492 -0.49345773
000040 b6 6e 29 bf 83 e1 2b 3e a6 d9 4c be a2 70 27 c0
       -0.66184556 0.16785245 -0.20004901 -2.6162496
000050 19 0d 86 bf 03 55 a5 3e 70 f6 cd 3e db 71 5d 3e
       -1.0472747 0.3229142 0.4022708 0.21625464
000060 cc 25 cf be f6 dc 75 bf a0 30 73 3e ec 0f 0d c0
       -0.40458524 -0.96040285 0.23749018 -2.2040968
000070 cc 34 c2 be 1e 23 59 3f e8 2f 6e bf 9d b8 9c 3e
       -0.37930906 0.8481921 -0.9304185 0.306096
000080 04 11 2c bc ca df b7 3e 3e 05 01 bf 50 2e 59 bf
       -0.010502104 0.35912925 -0.50398624 -0.8483629
000090 b3 6f 14 bf 2b 44 71 3e a3 fc 7f 3f c4 4e 0c bf
       -0.5798294 0.2356116 0.9999487 -0.54807687
0000a0 a6 20 88 3e 6c 73 e5 bd e6 8c 80 bd 17 8f 70 3d
       0.2658741 -0.112036556 -0.06276874 0.05873021
0000b0 17 69 69 3e 90 72 bf 3b dc 10 0b 3d d1 d8 6e bc
       0.22793995 0.0058425143 0.033951625 -0.01457806
0000c0 cf a7 58 bf 19 69 02 c0 fb 5f ed 3d a5 ad 25 40
       -0.84631056 -2.0376647 0.115905724 2.5887234
0000d0 40 e8 9e 3a 1d 95 d2 be 61 ee 07 bf 2f a9 11 3e
       0.0012123659 -0.4112939 -0.5309811 0.14224695
0000e0 86 63 a0 be 65 7a 9f 3e 75 ff e6 3e 50 9e f1 be
       -0.3132593 0.31148067 0.45116773 -0.47191095
0000f0 45 8b 86 3c 64 62 5f bf d1 59 6d be 7d d8 ff 3e
       0.01642383 -0.8725951 -0.23178793 0.49969855
000100 11 bb b1 bd 04 2e b6 be ff 48 b8 bd 25 ce d6 3e
       -0.08678258 -0.35581982 -0.08998298 0.4195415
000110 4a 90 11 bf c2 5e 24 bd 2c 8b 53 3e 3f d8 c4 bd
       -0.5686079 -0.04012943 0.20658559 -0.09611558
000120 81 97 f1 3b ca f5 0d bf 46 43 0b bd 18 70 54 be
       0.007372797 -0.5545317 -0.033999704 -0.20745885
000130 a5 20 2a bf 9e 80 6b be 0e 7b d1 bd 39 3d 78 3d
       -0.6645606 -0.22998282 -0.10228549 0.06060526
000140 bc a3 98 3f 83 ec 34 be 9f a6 78 c0 12 00 35 bd
       1.1924968 -0.17668347 -3.8851697 -0.04418952
000150 ff 61 95 3f 79 7a 2b 40 a7 56 7c 3f cf 20 65 c0
       1.1670531 2.6793501 0.9856972 -3.5801275
000160 73 55 25 bf fe 76 45 3f 66 ed 37 3e 65 ca 12 3e
       -0.6458351 0.7713469 0.17961654 0.1433502
000170 e1 3d d1 bf 9a c1 03 be 09 80 2e be 53 72 17 3e
       -1.6347009 -0.12866822 -0.17041029 0.14789705
000180 c3 d5 12 bd 3b 36 3b 3f f2 f6 75 bf 97 34 79 bf
       -0.03584839 0.73129624 -0.96079934 -0.9734587
000190 19 d4 2b bd cd a4 b4 3e 7c 2d 9a 3f 3a 7f a6 be
       -0.04195032 0.35281983 1.2045131 -0.3251894
0001a0 7f bd 40 3f a4 b3 29 3f e2 65 49 bf da b9 23 3e
       0.7528915 0.66289735 -0.78671086 0.15988865
0001b0 6e 53 88 3f e2 d8 9f 3f 5b 20 8e 3f 8b dd f2 be
       1.0650461 1.2488062 1.1103624 -0.4743465
0001c0 72 42 57 3c e8 06 d4 be 49 7c e6 bf fd 26 f5 3e
       0.0131384 -0.4141152 -1.8006679 0.47881308
0001d0 1f de e3 3e e0 62 a3 3f 1b 40 d6 3f 7b 73 d1 bf
       0.44505402 1.2764549 1.6738313 -1.6363367

weight f4 [5, 3]
000000 67 81 5d 40 0a 3d a8 3f 6f 0a a4 3f 27 84 21 be
       3.461023 1.3143628 1.2815684 -0.15773068
000010 ff 31 80 bf 75 03 8b 3d 8c 57 a0 bd 5f c7 d6 3e
       -1.0015258 0.06787769 -0.07829198 0.41948983
000020 1e b9 34 3f a4 23 1f bc 61 a5 19 3d 0c 65 b1 bc
       0.70594966 -0.009713087 0.037511233 -0.021654628
000030 fb 8c 18 3f ce d1 91 3d ea 41 a1 bf
       0.5959012 0.07120095 -1.259824

weight f4 [2, 1]
000000 d5 04 14 40 31 63 a7 bc
       2.312795 -0.02043304

weight f4 [4, 2]
000000 97 06 26 3e 1b 0c 60 be 51 5d 2b 3e 0f 5d a5 be
       0.16213451 -0.21879618 0.16734816 -0.3229756
000010 77 f5 88 c0 72 39 cf be b8 46 2b bf 38 aa 32 3f
       -4.279964 -0.40473515 -0.66904783 0.69790983

weight f4 [5]
000000 b9 01 0e 3f d2 a3 41 3f fb 2a b5 3f 9f 51 95 3f
       0.5547138 0.75640595 1.4153742 1.1665534
000010 40 5d 12 40
       2.2869415

bias f4 [5]
000000 ef 74 e7 bf cc 79 d4 be 2b 00 fa bf 8b c9 a6 bf
       -1.808256 -0.41499174 -1.9531301 -1.3030256
000010 cd e9 e8 3f
       1.819635

running_mean f4 [5]
000000 eb 02 8c 42 ba d6 1b 46 0f 9a 90 44 66 53 aa 43
       70.0057 9973.682 1156.8143 340.65155
000010 dd a2 4d 42
       51.409046

running_var f4 [5]
000000 12 df 0e 44 5c be 7f 4c 26 b8 0c 48 ba ff 36 48
       571.4855 6.704165e+07 144096.6 187390.9
000010 ad 8e 7a 44
       1002.2293

weight f4 [100, 19]
000000 70 47 50 3f 02 3c c7 3e a4 48 8e bd 2a 0c a9 3e
       0.81359005 0.3891297 -0.06947449 0.33017093
000010 e5 66 ed 3e f5 73 a7 3e b2 b5 15 3e ac ff ac bd
       0.46367565 0.32705656 0.14620093 -0.08447203
000020 ad 3f 74 3f 69 93 8b 3f 12 21 a7 be 2c 6c 79 3f
       0.9540966 1.0904361 -0.32642418 0.9743068
000030 fc 66 13 bf 8c e6 bb 3e e1 c1 8a bf 78 c9 2a c0
       -0.57579017 0.3669933 -1.0840417 -2.6685467
000040 92 50 d8 bf f8 4f f6 bf ac 6b 7a 3f b6 5b 5a 3e
       -1.6899588 -1.9243155 0.97820544 0.21324047
000050 6b 48 64 3e ae b3 b9 be 39 91 b2 be c5 0e 5b 3e
       0.2229325 -0.36269897 -0.3487642 0.21392353
000060 2d 32 96 3c 38 1b 54 3e 42 b5 47 be 66 18 94 3f
       0.018334473 0.20713508 -0.19502738 1.1569946
000070 04 3d f8 3f 03 22 2a bf a8 13 b6 3e 67 f1 0f 3e
       1.939362 -0.6645815 0.35561872 0.14056931
000080 f1 42 ba 3e 1f 37 d7 be a4 b9 eb 3c 9d 11 dc bf
       0.36379197 -0.42034242 0.028775044 -1.7192875
000090 d2 6a 20 c0 5c b3 8a 3f c2 51 c7 3e 67 3f 9f 3e
       -2.5065198 1.0835986 0.38929564 0.3110306
0000a0 24 85 ca bd 05 5d 3f 3d 35 8f 5f 3e ce 52 3e c0
       -0.09888676 0.04671957 0.21831973 -2.973804
0000b0 5c 6a 94 3e c8 d0 00 be e5 bb 15 3f 1d 3d 86 3f
       0.28987396 -0.12579644 0.5848983 1.04874
0000c0 2b d0 df 3c 26 e7 53 3f 9f 63 c7 3e 9a a7 e7 bd
       0.027320942 0.8277458 0.38943192 -0.11311264
0000d0 49 7c bf be 4b 8a 60 be 90 af 13 c0 9a 91 f1 bf
       -0.3739951 -0.21927755 -2.3075905 -1.8872559
0000e0 89 e5 a0 3d de 6a 13 3f e2 64 9c 3e bc 64 1e bd
       0.0785628 0.5758494 0.30545717 -0.038670287
0000f0 79 25 45 3d cd 2f 07 3f 6a ca 51 bd 66 87 7e bd
       0.04813144 0.52807313 -0.051218428 -0.062140845
000100 2a c2 16 3d 07 2c 3f 3f ba 66 9b 3f 65 29 7d be
       0.036806263 0.74676555 1.2140725 -0.24722822
000110 4a 3d 03 be a1 16 a7 be d1 ba 0b be 00 e2 88 bf
       -0.12816349 -0.32634452 -0.13645484 -1.069397
000120 84 c7 93 bf ec fc 05 c0 2f 56 0c c0 cb 24 77 3f
       -1.1545262 -2.0935621 -2.1927602 0.96540517
000130 c6 1b 85 3e ef 8a 21 be 83 c2 27 bf e2 63 11 3e
       0.25997752 -0.15775655 -0.65531176 0.14198259
000140 88 2a 6a 3e 30 13 c0 3e e2 c6 12 bf 39 b9 5a be
       0.22867787 0.3751464 -0.5733472 -0.2135972
000150 9d 10 41 3f cd 37 ee 3e 4f 3d e0 be 37 59 e2 be
       0.75415975 0.46526948 -0.43796775 -0.4420869
000160 2b 8c e0 3d 0a db 0d 3f 32 97 aa 3f 5b f4 c8 3d
       0.10964235 0.5541235 1.3327391 0.09812232
000170 4d 71 e4 bf d9 6a 33 c0 ed b1 17 3f ff a8 f3 be
       -1.7847077 -2.8033965 0.5925587 -0.4758987
000180 41 f8 50 be 6e 7a 8a 3c 9a 80 25 3e e8 78 7f 3d
       -0.20407201 0.016904082 0.16162339 0.062371165
000190 9c f2 8b bf 30 7f fa be a7 78 65 3d f0 da 94 be
       -1.0933414 -0.4892516 0.056023266 -0.29073286
0001a0 fa 85 fa 3f 41 00 99 be 11 3c d5 3e f9 2e 84 3e
       1.9572136 -0.29883006 0.4164739 0.25817087
0001b0 6b ab 70 bd 88 02 bf 3f d4 8c c4 c0 06 3e 82 3f
       -0.058757227 1.4922647 -6.142191 1.0175178
0001c0 61 f8 6d bf a2 49 f5 3e c8 df 76 3e e9 0b d7 bc
       -0.9295712 0.4790774 0.24108803 -0.026250796
0001d0 eb 99 ce 3e 44 9d 3a 3e e1 95 3a bc 81 55 68 bf
       0.40351805 0.18224055 -0.011388273 -0.9075547
0001e0 c8 0c 2d 3d cb 57 be 3e 7c f8 bc bf 94 22 af be
       0.042248517 0.37176356 -1.4763331 -0.3420607
0001f0 06 f5 9a 3f 86 5e b8 be 5c ab 6e 3f b1 72 83 bf
       1.2106025 -0.36009616 0.93230224 -1.0269376
000200 47 58 01 40 85 d7 ae 3f de 4d 04 c0 54 b3 f3 bf
       2.021013 1.3659521 -2.0672526 -1.9039102
000210 fe 02 2f 3f cb a1 b3 bd c9 cd 08 3e 77 88 8b 3d
       0.6836394 -0.08771094 0.13359751 0.06813138
000220 51 39 10 bf fd b6 be be 33 2c 1e 3f 13 f7 cf 3e
       -0.5633746 -0.37248984 0.6178619 0.4061819
000230 05 48 9a bd ed 0e 92 be ed e4 64 bd 42 77 b1 3c
       -0.07533268 -0.28527012 -0.055882383 0.021663312
000240 a7 52 9b be bc 04 64 3d 6a 27 78 be 77 f3 4d 3f
       -0.30336496 0.055668578 -0.24233785 0.8044962
000250 92 e8 80 be 3c 0c ae 3f b7 18 b3 3f 8f 02 23 c0
       -0.25177437 1.3597484 1.3991917 -2.5470312
000260 e3 ed 85 3f e2 4a 85 3d 75 58 7e bf 6f de 75 3d
       1.0463222 0.065084234 -0.99353725 0.060026582
000270 96 ca b2 3d 4d b0 ad 3f 60 49 88 3f d6 d3 68 bf
       0.087300465 1.3569428 1.0647392 -0.90948236
000280 6a 38 05 bd 0b 93 b0 bc d4 ea 8a 3f dc 7f 9d be
       -0.032524504 -0.02155449 1.0852914 -0.3076161
000290 cc f7 2b bf 9c d9 14 3d 4b d7 82 be cf 7c 3b c0
       -0.67174983 0.03634034 -0.2555488 -2.9294927
0002a0 3e 09 82 bf ea 6e a4 bf 0b d4 33 3f 5f 70 81 3f
       -1.015907 -1.2846348 0.70245427 1.0112418
0002b0 59 48 9f bf 14 ae 42 bf cb 1b 60 3f a8 60 71 3f
       -1.2443954 -0.7604687 0.8754241 0.9428811
0002c0 0b 77 89 3e c3 97 18 be 10 0c 70 be 3e ec 2d 3f
       0.26848635 -0.14901643 -0.23442101 0.679386
0002d0 3e 1d f3 3d 5a 02 6f be 47 4b 80 be c4 b4 6a be
       0.11870812 -0.23340741 -0.25057432 -0.22920519
0002e0 e8 5c 68 3e 48 3e 18 3f c4 45 44 bf ad 07 81 3f
       0.22691691 0.59470034 -0.76668954 1.0080467
0002f0 41 1a 07 3f ce 3f 48 c0 5b 2d 4b bf 4d 08 1b 3f
       0.52774435 -3.1288943 -0.7936608 0.6055954
000300 7d b1 f7 be 70 4c 9f be 58 bd b7 3e d3 01 25 bf
       -0.483776 -0.31113005 0.35886645 -0.6445591
000310 ee f3 65 be a9 0c 0f 3f 93 5a d2 3d ff 08 b6 be
       -0.22456333 0.5587869 0.10271182 -0.35553738
000320 58 aa 59 3e 3c f6 db be 5b f5 73 3f 67 57 5d bf
       0.21256387 -0.429613 0.9529626 -0.8646149
000330 44 96 b0 3f 60 67 69 3e e0 6c 0b 3f 02 07 0c 3e
       1.3795857 0.2279334 0.54463005 0.13674548
000340 2e 14 4a be c0 5e 57 3c 38 69 0a be 5d 77 cf 3d
       -0.1973426 0.013145149 -0.135167 0.101301886
000350 a3 25 29 40 78 bb 84 bf 23 79 9c bd 25 8f 56 3d
       2.6429222 -1.0369711 -0.076402925 0.052382607
000360 4d e9 89 3d ed 4b 99 bf b0 5d 93 be d2 99 33 3f
       0.06733952 -1.1976296 -0.28782415 0.70156586
000370 b6 53 b2 be 4d 37 21 be 1a 9c a0 3d f4 af 88 3e
       -0.3482949 -0.15743752 0.07842274 0.26696742
000380 4a 59 b1 3f 4d 67 2b 40 9a 63 19 3f 2b 8e 1d c0
       1.3855374 2.67818 0.59917605 -2.4618022
000390 cc 2c 20 40 ae ee 0c 3f ce 51 25 3f 35 a9 1f bf
       2.5027342 0.55051696 0.6457795 -0.62367564
0003a0 00 5f 4e 40 f3 89 08 bf f1 4a d9 bd 76 91 68 3f
       3.2245483 -0.53335494 -0.10609997 0.90846956
0003b0 88 40 7b c0 0b 03 72 bd e0 46 3b 40 72 ff c0 3f
       -3.9258137 -0.059084933 2.9262009 1.5077956
0003c0 59 c3 56 3e f1 a5 b3 3f 67 a0 e4 3f 79 10 67 be
       0.20972957 1.4035016 1.7861451 -0.22564878
0003d0 71 17 84 3f fe 58 f3 be 05 d2 32 3f 9d 99 e9 3e
       1.0319654 -0.47528833 0.69851714 0.4562501
0003e0 e6 1f a4 3e 92 75 a4 bd 86 8f d0 bb bc 15 b1 3e
       0.32055587 -0.08030237 -0.0063647656 0.34586895
0003f0 64 c0 1f 3e 67 07 ef bd bb a4 1f be 61 d7 ba 3e
       0.15600735 -0.11671334 -0.15590183 0.36492446

bias f4 [100]
000000 27 ae 7c 40 a7 14 72 3f d3 54 1f c0 41 ec 67 40
       3.9481294 0.9456276 -2.4895523 3.6237948
000010 12 c2 2d 3f 34 63 a6 bf 38 8f 13 3e 4b 76 53 bf
       0.6787425 -1.2999024 0.14410102 -0.82602376
000020 aa fd b2 40 81 2e ac 3f 2d c1 cd bf e2 8c 93 3e
       5.593465 1.3451692 -1.6074578 0.28818423
000030 3d 02 2a bf 46 63 82 40 cd 54 9c 3f ec a9 fa 3f
       -0.66409665 4.0746183 1.2213379 1.9583106
000040 f8 b7 6b 3f 25 30 63 c0 eb 0d 19 40 16 db dd bf
       0.9207759 -3.5498135 2.3914745 -1.7332485
000050 75 d0 07 be b2 90 b0 c0 e2 55 9d bf 30 ac 83 3f
       -0.13263114 -5.517663 -1.2291834 1.0286922
000060 19 d4 c4 bf 6f e5 c7 bf 2d fc f1 bf 10 c4 1c bf
       -1.5377227 -1.5616893 -1.8905083 -0.6123667
000070 c4 93 0f c0 e6 d2 a1 c0 fe 12 9d 40 b7 a7 b0 3f
       -2.243394 -5.0569944 4.9085684 1.3801183
000080 c7 a7 f3 3f a8 37 89 40 5d 73 f8 3f 58 07 22 c0
       1.9035577 4.288044 1.9410206 -2.5316982
000090 ce ae b2 3d 4e 45 21 bf 18 95 a2 3f 2d c2 c3 40
       0.087247476 -0.62996376 1.270175 6.117453
0000a0 2c ce 94 be 06 00 cb 40 44 35 07 c0 7a b0 89 40
       -0.29063547 6.343753 -2.112626 4.3027925
0000b0 c2 46 85 bf ef 82 40 bf 1c bf 81 bf ed a5 af 40
       -1.0412219 -0.7519979 -1.0136447 5.4890046
0000c0 f5 9f c9 40 4f a1 ab 40 1f 20 de 3f 52 19 8d bf
       6.300776 5.363441 1.7353553 -1.1023352
0000d0 dd ad e7 bf 51 1c e3 40 03 63 d1 40 40 fa bf be
       -1.8099934 7.0972066 6.5433364 -0.37495613
0000e0 4b d0 16 c0 c9 f6 24 40 3f 74 fd bf ac 25 2e c0
       -2.3564632 2.5775626 -1.98011 -2.7210493
0000f0 bf 49 6f 3f b3 72 bc 3f a5 28 0c c0 20 04 f6 bf
       0.934719 1.4722503 -2.1899807 -1.9220009
000100 4f 7d 41 c0 07 94 a3 40 8d 07 e6 bf f3 65 18 40
       -3.0232732 5.1118197 -1.7971054 2.3812225
000110 00 b1 4e 40 a5 da ba 3f d7 c7 24 40 3f 5f 80 40
       3.2295532 1.4597975 2.5746973 4.0116267
000120 8c 22 82 bf 3b e5 56 40 66 af 08 c0 48 c8 ab 3f
       -1.0166793 3.357741 -2.1357055 1.3420496
000130 6f f6 fb 40 a3 f9 f4 3f c1 b9 59 3f c4 96 f9 3f
       7.873832 1.9138683 0.8504906 1.9499135
000140 02 62 f5 bf 7f 1e 26 c0 b1 f5 e0 bf 70 db e9 3f
       -1.9170535 -2.5956113 -1.7574979 1.8270092
000150 7f 1e cc 40 7d 23 4f 3f 54 62 f4 3f c2 14 ad 3f
       6.3787227 0.80913526 1.9092507 1.352196
000160 ba 6c bd 40 43 e6 99 40 5f 84 10 40 bd 9e a6 40
       5.9195223 4.809358 2.2580793 5.206877
000170 e6 75 69 c0 e7 36 17 c0 7a ac 4e 3e e7 fe 1d c0
       -3.647821 -2.362726 0.20182982 -2.468683
000180 31 3a a6 40 dd 9e d3 3e d5 eb 9a bf d6 0d 8f 40
       5.1946034 0.4133214 -1.210322 4.470439

weight f4 [100]
000000 6d d2 85 3e 0b b1 9c 3e d3 f5 78 3e 00 37 8a 3e
       0.26137105 0.30603823 0.24312524 0.26995087
000010 4f 9c aa 3e 26 e7 f5 3e 82 06 fe 3e cb d8 80 3f
       0.3332238 0.48027915 0.4961434 1.006616
000020 2e 3f a2 3e 9a 95 ac 3e eb 37 46 bd 4b f4 38 bf
       0.31688827 0.33707887 -0.04839317 -0.7224776
000030 da 6d 25 3f 81 12 8e 3e bb 64 44 be 03 d0 a2 be
       0.64620745 0.27748492 -0.1917905 -0.31799325
000040 35 65 80 be a2 61 b1 3e 14 d6 86 3f fe 29 6c 3f
       -0.25077215 0.346448 1.0534081 0.92251575
000050 22 03 be 3e 7e 50 e4 3e 79 43 1b 3f 8d 7f 99 3e
       0.37111765 0.4459266 0.6064983 0.29980126
000060 06 eb c0 3e dd e6 04 3f e6 40 bd 3f 76 cc 65 3f
       0.3767931 0.5191477 1.478543 0.8976511
000070 be 2d 46 bd ee 22 69 3f 7c 10 69 3e 9d 40 96 3e
       -0.048383467 0.91068923 0.22760195 0.2934617
000080 e8 98 94 be ee 23 67 3e a9 f2 86 3e 17 eb 8c 3e
       -0.29022908 0.225723 0.2635701 0.2752311
000090 d9 16 05 3f ba 37 a6 be 9d e9 b2 3e 38 57 ab 3e
       0.5198799 -0.3246439 0.34943858 0.3346498
0000a0 fe 38 dd 3e 5e 76 a1 3e fb 75 81 3d 0a 09 8d be
       0.43207544 0.3153562 0.06321331 -0.2754596
0000b0 40 47 01 bd c4 14 dc 3e f9 b7 ce 3e 6d 9c a8 3e
       -0.03156209 0.42984593 0.40374735 0.32931843
0000c0 18 0e b7 3e b7 f2 9a 3e 05 44 d3 be 3a c8 35 3f
       0.3575294 0.30263302 -0.41262832 0.71008646
0000d0 3e 31 cd 3d 33 0a a4 3e cb 3c b5 3e 5a 0c da 3e
       0.10019158 0.3203903 0.35397944 0.42587548
0000e0 22 12 67 3e 79 e6 77 3e f1 90 a8 3e cc b2 e0 3e
       0.22565511 0.24209012 0.32923082 0.4388641
0000f0 42 ce 94 be 2e 55 a4 3e f3 3f 36 3f 82 9c 15 40
       -0.29063612 0.32096237 0.7119133 2.3376775
000100 45 7f b5 3e ca c5 85 3e cb 28 60 3f a5 4a 51 3e
       0.3544866 0.26127464 0.87562245 0.20438631
000110 bd b8 d9 3e 71 be 84 3e 62 eb 66 3e c9 77 80 3e
       0.42523757 0.25926545 0.22550729 0.2509139
000120 d0 b2 50 3f 94 40 7c 3e 39 dc e5 3f cc 09 84 3e
       0.81522846 0.2463401 1.7957832 0.25788724
000130 68 82 bc 3e dd 52 96 be 31 ef b7 3e 8b 2c b8 3e
       0.36818242 -0.29360095 0.35924676 0.35971484
000140 dd bf e3 3f 04 92 db 3d 45 f1 49 3f de b8 58 3e
       1.7792927 0.1072121 0.78883773 0.21164271
000150 c9 99 89 3e 1e 00 a7 3e 12 b9 65 3e 7b b4 a7 3e
       0.2687514 0.32617277 0.2243388 0.32754883
000160 c4 21 93 3e 46 5a 6c 3e 4e ba ba be 58 23 af 3e
       0.287367 0.23081312 -0.36470264 0.34206653
000170 c4 2a dd bd c5 9f 07 3f 36 0b 95 3e 16 45 b5 3e
       -0.107991725 0.52978164 0.29110116 0.3540427
000180 57 f6 57 3e e8 5d 2d 3f af 0e 2f 3f 37 f2 88 3e
       0.21090065 0.67721415 0.6838178 0.26747295

bias f4 [100]
000000 3a 3c 5e bd 3d 18 c8 bd 97 eb ec bb e4 7e 57 bd
       -0.054256655 -0.09770248 -0.007230233 -0.052611247
000010 69 10 8a 3e 7a ee ca 3c da e2 dd 3e 61 71 d9 3d
       0.26965645 0.024771918 0.43337137 0.106173284
000020 bc b4 81 3e ad 75 47 3d 76 ee 6b 3b 34 36 c4 bd
       0.25333202 0.04869621 0.0036000288 -0.09580651
000030 2b 70 50 3c 89 2f e9 bd 72 f6 d6 3c d9 a1 c5 bd
       0.012722055 -0.1138602 0.026240561 -0.096500106
000040 12 9b 3b bd b2 26 cc 3d 2b 35 13 3f fe dd c3 3c
       -0.045802183 0.09968318 0.57503 0.023909565
000050 64 ad 6d 3d 4f 91 c8 ba 0f d8 1a 3d f5 f2 98 3e
       0.058026686 -0.0015302094 0.037803706 0.29872862
000060 17 c3 8f 3e 72 98 bc 3c 09 a1 77 3c 0f 8e 5b 3d
       0.2807853 0.02302191 0.015114077 0.053602275
000070 7f 98 2f 3e 72 f5 4f 3e 2c 2b a6 3c 99 a6 a2 bc
       0.17148016 0.20308474 0.020284258 -0.01985483
000080 a6 b1 4a be 80 15 a3 bd da d5 3e be b7 9c 42 3d
       -0.1979433 -0.07963085 -0.18636265 0.047512736
000090 29 16 98 3b 5d c9 87 be 51 5d 9c 3d f0 6c 57 3e
       0.0046413136 -0.26520815 0.07634986 0.2103765
0000a0 88 25 e6 bc f4 8b 38 3e 97 d1 2f be af a9 a5 3d
       -0.028094068 0.18022138 -0.17169796 0.08089005
0000b0 5b 06 03 3e 35 a6 4a 3e 15 27 b4 3e 95 7c 65 3e
       0.12795393 0.19789965 0.35186067 0.22410806
0000c0 90 88 52 3e 34 76 17 3e a7 e3 a4 be c2 7a 14 3d
       0.20559907 0.14791185 -0.32204935 0.036249883
0000d0 6c 95 55 bd a6 ee 3d 3e aa 1b 50 3e 9f b8 89 3e
       -0.052144453 0.18548068 0.20323053 0.26898667
0000e0 6f 7d 85 bc a9 1a 10 be c4 2c 4e 3e 51 21 ee bd
       -0.016295163 -0.1407267 0.20134264 -0.11627448
0000f0 77 5d 2f be e0 48 41 3c 78 fb b9 bb 6c 7a 7e ba
       -0.17125498 0.01179716 -0.0056757294 -0.00097075733
000100 03 41 aa bc a7 95 32 3e ce de aa 3d 9b f9 2a be
       -0.020782953 0.174399 0.08343278 -0.1669678
000110 71 a4 d4 3d fc 36 2f bd 57 91 6a be 3e bb 50 bd
       0.10382927 -0.042777047 -0.22907005 -0.050959818
000120 18 88 93 3b 45 60 bf bd f7 8a 9c 3c c5 7e f6 bc
       0.0045023076 -0.09344534 0.019109232 -0.030089745
000130 ed 9e 75 3d f7 86 f0 bd 1c 7f 04 3e 8c 40 5c 3d
       0.059966017 -0.117444925 0.12939113 0.053772494
000140 47 1e 97 3d aa 56 0e 3e 59 3a 66 bd 21 2f fa bd
       0.07378822 0.13900247 -0.05620799 -0.122160204
000150 f4 44 4b 3e 07 8f ad 3d 4e 13 2a be 0a c0 89 3e
       0.19850522 0.08474546 -0.16608927 0.26904327
000160 c6 39 3e 3e a0 d1 3c 3d c7 1e 30 3e a4 de 72 3e
       0.18576726 0.04609835 0.1719924 0.23717743
000170 d2 06 8c bd 54 8a 6a bb 3e fe a4 3e df 33 4d 3e
       -0.06837238 -0.0035788016 0.3222522 0.20039319
000180 db 72 e4 bc c6 36 25 3e 7b 97 9d bd d9 aa ce 3c
       -0.027886799 0.16134176 -0.07694908 0.02522795

running_mean f4 [100]
000000 3e 2c 75 41 82 de 2d 41 69 8b a9 40 cf 53 6f 41
       15.323301 10.866823 5.298268 14.957961
000010 5b d2 e8 40 42 f5 b7 3e 1b 3d 33 40 05 d8 22 3d
       7.275678 0.35929304 2.8006046 0.039756794
000020 48 a8 56 41 a4 87 d7 3e 81 cc 1a 3c 0d a6 72 3e
       13.416084 0.42095673 0.009448172 0.23696156
000030 b6 89 08 3e 81 c9 60 41 d0 67 3d 41 7d 49 02 3f
       0.13333783 14.049195 11.837845 0.50893384
000040 c1 ef 38 41 17 d1 ed 17 72 64 91 3f aa 8e a5 39
       11.558534 1.5368548e-24 1.1358778 0.00031577545
000050 e4 a7 6b 3e ce 6d b4 3e 6d 87 ee 3c 98 39 25 41
       0.23013264 0.35240024 0.02911731 10.326561
000060 94 36 c4 40 3f e0 2e 3c 2a 95 4d 3b 4e 7a ca 3c
       6.1316624 0.010673582 0.0031369426 0.024716523
000070 df 24 8f 3b 72 f3 9b 3d 51 b1 68 41 1e ca 30 41
       0.004368409 0.07614793 14.54329 11.049345
000080 df bd 40 41 3d 64 73 41 6b 4d 97 3f 58 61 9e 3c
       12.046355 15.211972 1.1820501 0.019333526
000090 db f1 9d 3d e5 1c fc 40 cc 96 fc 3e fb 9b 4b 41
       0.07712146 7.878527 0.493338 12.725581
0000a0 50 19 24 3e cc f9 6b 41 14 ee 30 27 c9 72 79 41
       0.16025281 14.748486 2.455397e-15 15.590524
0000b0 96 1f e5 3b 1d 14 ab 40 d7 b9 f6 40 cb 6a 59 41
       0.0069922907 5.346205 7.7101855 13.5885725
0000c0 b2 54 57 41 a3 a6 58 41 81 1c ab 40 59 c4 fa 3c
       13.458178 13.540683 5.3472295 0.030611204
0000d0 04 8c 29 3c e3 c2 7d 41 31 fc 66 41 56 31 24 40
       0.010348324 15.86008 14.43657 2.5655112
0000e0 8c e2 b7 40 fc 9b ad 3f b9 04 9c 40 3b 6f d0 3c
       5.7464046 1.3563228 4.8755765 0.025443664
0000f0 fc fd 2e 41 f5 7d b1 3e 04 00 00 00 0f 83 44 3b
       10.937008 0.3466641 6e-45 0.0029985344
000100 64 49 38 3c c7 0c 5d 41 a2 39 82 3d 8a ee 99 3f
       0.011247966 13.815619 0.06358649 1.2025921
000110 59 66 b8 3e 0c 63 40 41 1c 4e ab 3f 91 8b 71 41
       0.36015585 12.024181 1.3383212 15.096574
000120 6b 97 02 3d 7e 39 6e 41 d2 c2 8d 3b 00 0d c2 3e
       0.031882685 14.889036 0.004326203 0.37900543
000130 90 ca 68 41 4e 9d 45 41 19 30 bd 3e a3 4c 3d 3e
       14.549454 12.350904 0.36950758 0.18486266
000140 f4 74 52 3b 04 00 00 00 04 00 00 00 5e 74 31 3f
       0.0032113167 6e-45 6e-45 0.6931819
000150 15 09 67 41 17 4e 04 3f cb 5b a1 3f c5 a7 33 41
       14.439717 0.51681656 1.2606138 11.228459
000160 d3 ac 7e 41 c1 b2 69 41 1f 03 a9 3f ae 9b 79 41
       15.917193 14.606141 1.3204077 15.600508
000170 04 00 00 00 c9 ff 0b 3e a3 ca f3 40 8d e5 aa 40
       6e-45 0.13671793 7.618486 5.3405213
000180 8f 98 5b 41 01 f1 80 3e 46 23 a1 3c 18 24 5c 41
       13.724746 0.2518387 0.01967014 13.758812

running_var f4 [100]
000000 ed dd e5 41 ad 08 da 41 2e cc 36 41 b2 40 db 41
       28.733362 27.254236 11.424849 27.40659
000010 b6 ec 84 41 6e 5e 1a 3f f7 37 ff 40 bc 02 89 3e
       16.615582 0.6030034 7.9755816 0.267599
000020 28 8a bb 41 f7 85 8e 3f c2 cb 05 3d 28 60 16 40
       23.44246 1.1134633 0.03266502 2.349619
000030 6d 28 24 3f fc 78 bd 41 ec 3a ce 41 c9 1d e2 3f
       0.64124185 23.684074 25.77877 1.766534
000040 2b 24 a3 41 b7 49 3a 15 99 f8 45 40 56 f0 7a 39
       20.39266 3.7620552e-26 3.0932982 0.0002393139
000050 56 1d df 3f b5 5a 0d 3f 65 a9 ca 3d 78 69 08 42
       1.7430828 0.5521653 0.09895591 34.102997
000060 00 c9 df 41 1f f0 23 3d b5 8b 09 3c 8c 44 0e 3e
       27.973145 0.04002392 0.008395125 0.13893336
000070 2a 0a 6b 3c a6 f3 c4 3d 23 dd b7 41 50 cb be 41
       0.014345685 0.09616785 22.982977 23.849274
000080 6a 92 12 42 6c 25 bc 41 bc 61 44 40 1e c8 55 3d
       36.642982 23.518272 3.0684652 0.0521928
000090 26 0e a8 3e ed 7b ec 41 1f 88 fa 3f dc 6b 98 41
       0.32823294 29.56051 1.9572791 19.052666
0000a0 3d 25 01 3f 45 ad c7 41 72 be 01 25 39 d8 d8 41
       0.50447446 24.959604 1.1253492e-16 27.105577
0000b0 75 f1 1a 3d f2 9c 47 41 16 7f e0 41 98 0e d0 41
       0.037827928 12.475817 28.062054 26.007126
0000c0 a0 b2 bc 41 81 79 c9 41 5a 70 55 41 4d d3 40 3e
       23.58722 25.184328 13.33993 0.18830605
0000d0 04 7b 8c 3d 5f 92 a8 41 9f d8 4a 41 fc bc de 40
       0.06859401 21.07147 12.677886 6.9605694
0000e0 df 4a 5a 41 f4 66 5a 40 82 64 51 41 7b aa 51 3c
       13.643279 3.4125338 13.087038 0.012796993
0000f0 f0 cc ab 41 43 26 6c 3f 04 00 00 00 10 84 10 3c
       21.475067 0.9224588 6e-45 0.008820549
000100 01 12 c1 3c 41 91 e2 41 a8 0a 90 3e 38 55 33 40
       0.023568155 28.320925 0.2813313 2.8020763
000110 e8 c0 ca 3f 5e 7a bd 41 20 fa 60 40 5e cd c3 41
       1.584012 23.68475 3.5152664 24.475277
000120 7e 2b 5b 3e f2 19 e1 41 e0 fa 85 3c c1 e4 94 3f
       0.2140331 28.137669 0.016354978 1.163231
000130 a2 84 64 41 4b 23 d7 41 3e 44 71 3f 7a 80 25 3f
       14.282381 26.892233 0.94244754 0.64649165
000140 5b 68 ee 3b 04 00 00 00 04 00 00 00 29 39 05 40
       0.0072756237 6e-45 6e-45 2.0816138
000150 7c 45 cd 41 65 b6 e2 3f 33 83 4f 40 4f 53 9e 41
       25.658928 1.7711912 3.2423828 19.790678
000160 84 0c 9b 41 dd 69 b5 41 8d 3d 55 40 52 db c1 41
       19.381111 22.676691 3.3318818 24.23209
000170 04 00 00 00 ef 70 26 3f be dd a6 41 0d fa 45 41
       6e-45 0.65016073 20.858273 12.373548
000180 52 5f a8 41 5a ad 0b 40 6a 28 07 3e 6b ce aa 41
       21.046543 2.1824555 0.1319901 21.35079

weight f4 [50, 100]
000000 ee 0f 0f 3f 91 03 26 3f a9 a4 88 3f 61 fe 39 3f
       0.5588368 0.6484919 1.067525 0.72653776
000010 1b b4 14 3f e8 00 94 bf 23 5e 01 bf 0e e7 e6 3f
       0.5808732 -1.1562777 -0.50534266 1.8039262
000020 ce ab 27 bf 80 79 a3 bf 67 e8 8b 3e 6b 22 aa 3e
       -0.6549653 -1.2771454 0.27325746 0.33229384
000030 43 ee 4a 3f d8 2f 7a 3f 02 2f 92 bf f2 4d 93 3f
       0.7926981 0.97729254 -1.1420596 1.1508162
000040 3b b7 46 bf d6 04 e0 be 69 a4 ae bc f5 b8 d8 3d
       -0.7762334 -0.4375369 -0.021318631 0.10582153
000050 bf e4 2a bf 0f 2b d7 3e 8e b2 a9 be 38 de de 3c
       -0.6675529 0.4202504 -0.3314404 0.027205572
000060 7b 95 ba bd b3 be 78 3f 11 44 64 3f f5 5a b9 3f
       -0.091105424 0.97165984 0.8916636 1.4480883
000070 11 5b 8c be f7 d9 a6 3d 79 b8 f5 3e 4a 21 69 3f
       -0.27413228 0.08147042 0.47992304 0.9106642
000080 97 78 09 be 6d e1 1e 3f c3 a4 13 bf 24 bb 97 3e
       -0.13424908 0.6206272 -0.5767328 0.29634964
000090 1f 51 92 be d6 2d 2c be e4 c5 3d bf d2 f1 b1 bd
       -0.28577515 -0.1681436 -0.7413008 -0.08688702
0000a0 af 1a 35 3e 52 16 b7 3d 9c 27 1c 3f 57 14 5d bf
       0.1768596 0.08939804 0.6099794 -0.8635916
0000b0 12 f8 61 bf 58 f6 20 3f 1e fc 5f bf 92 93 ae 3d
       -0.8826915 0.6287589 -0.87494075 0.085242406
0000c0 b5 b6 0a bf 28 8d 06 bf 71 c4 19 bd a6 68 c9 3f
       -0.5418504 -0.5255914 -0.037540857 1.5735061
0000d0 fb da 96 be 79 62 a0 bd 4a 49 f1 3e 3c a4 34 3f
       -0.29463944 -0.07831282 0.47126228 0.705631
0000e0 80 1f 52 3f bc 36 d0 bd fa e6 cb bd 62 a3 30 3f
       0.82079315 -0.1016669 -0.09956165 0.689993
0000f0 c9 e7 8f bd 10 d5 8d bf e4 47 98 bd 5a b4 75 3e
       -0.070266314 -1.1080647 -0.07435587 0.2399458
000100 76 bf 0b bf 4f 66 a9 be 1c f2 56 3f 88 36 da be
       -0.5458902 -0.33085868 0.8396318 -0.4261973
000110 13 21 c5 bf 99 bc 52 3f d1 be 2d bf 84 fe cc 3e
       -1.5400718 0.8231903 -0.6786929 0.4003793
000120 29 58 2a 3f 2c f4 d5 3e 1c 93 f5 3e f4 fa 7f bf
       0.6654077 0.4178785 0.47963798 -0.999923
000130 3b 88 a3 3f 56 cd 4e bf bd 8e 91 bf ca c1 4c 3e
       1.2775949 -0.8078207 -1.1371685 0.199958
000140 cb b7 47 3f 91 6f 65 bf c5 9e 49 3e c3 db 1b bf
       0.7801482 -0.8962336 0.19689472 -0.60882205
000150 21 2c 68 bf 99 1c 7b bf c3 25 84 bf 5c 32 11 3f
       -0.90692335 -0.9809051 -1.0324024 0.5671747
000160 34 a5 f4 be 97 19 88 bd 1b 5d 7a 3f f9 20 42 be
       -0.4778229 -0.06645506 0.9779832 -0.1895789
000170 96 17 06 bf bb 4a 9f bd 30 3d 00 3f e5 67 bb 3d
       -0.5237974 -0.077779256 0.50093365 0.09150676
000180 c2 ed 02 3f 37 fd c5 be 97 c7 db 3e bd e7 9b 3e
       0.5114404 -0.3866975 0.42925712 0.3045024
000190 4a fb 4e bf 6a b2 bf bf 3e a8 b4 3e d7 4c a8 be
       -0.80852187 -1.4976323 0.3528461 -0.32871124
0001a0 ef de ce be 10 c4 cc bf 51 68 26 3f b5 42 b4 3e
       -0.4040446 -1.5997334 0.65002924 0.35207143
0001b0 df 3c 4e be f5 25 ac 3e 32 1b d6 3e 00 71 0d bf
       -0.20140408 0.3362271 0.41817623 -0.5525055
0001c0 7c 97 85 bf a1 29 2c bf 5c be 47 3f 8e 04 9c 3e
       -1.0436854 -0.6725102 0.7802484 0.30472225
0001d0 8b 72 ba bc 17 af da 3e d4 67 0f be e3 9f 6a bf
       -0.022759696 0.42711708 -0.14004451 -0.9165022
0001e0 51 b9 12 3f 7e 98 80 3f 8a 5a d2 3e c0 e9 e8 be
       0.5731402 1.0046537 0.410847 -0.45490837
0001f0 8a f8 69 bf 56 93 99 bf 76 e4 d6 bf 07 39 6f be
       -0.91394866 -1.1998088 -1.6788471 -0.23361598
000200 17 bd 77 3f c3 95 51 c0 33 b0 e7 be ce 1c 68 bf
       0.96772903 -3.2747657 -0.45251617 -0.9066895
000210 77 b7 20 3f 2e 82 3a bf 40 6b 0e bf 4f 05 70 bf
       0.62779945 -0.7285489 -0.556324 -0.937581
000220 9e 5d fb bd 80 5c 41 3f 10 4c aa 3d 10 9a aa be
       -0.122737154 0.7553177 0.08315289 -0.33320665
000230 6b 96 c9 3f 22 57 6c bf be 7d 12 3f 4a b4 86 be
       1.5749029 -0.92320454 0.5722312 -0.26309425
000240 bb 1a 54 3f 7d 6b c7 3e 57 02 66 bf e9 5c 5c be
       0.8285329 0.38949195 -0.8984732 -0.21519817
000250 82 8b 62 be 7e a9 ac bf 5d 93 8c 3d 03 6d c0 3e
       -0.2212353 -1.3489225 0.06864045 0.3758317
000260 51 c4 92 bf 5b b5 92 bf 63 37 fb 3d e2 12 50 3f
       -1.1466161 -1.1461595 0.122664236 0.8127881
000270 43 ed 20 3f 5f f4 87 bf a2 03 1f bf 69 76 a9 3f
       0.6286203 -1.0621451 -0.6211492 1.3239261
000280 a3 7f 26 3f 96 7d 09 3e 5d 95 da 3e 09 1e 93 bf
       0.6503851 0.13426813 0.4269208 -1.1493541
000290 0c ef 9e 3f 05 7b 59 bf 79 04 29 3e 8b 64 b8 be
       1.2416701 -0.8495334 0.16505612 -0.36014208
0002a0 f9 e4 80 3f 89 7c 6b be 47 e2 0c bf 2a 68 54 3e
       1.0069877 -0.22996725 -0.5503277 0.2074286
0002b0 ad f8 ff bc a2 23 f0 be ed e9 aa bf 2c 7b 2e 3d
       -0.031246508 -0.46902186 -1.3352638 0.042597935
0002c0 0c 0a 18 bf 16 65 8a 3e 44 29 a8 bb 17 01 47 3e
       -0.5939033 0.27030247 -0.0051318724 0.1943401
0002d0 a7 a2 d4 bf bd df 05 3f ca c1 a1 bf 89 f0 cc be
       -1.6612138 0.5229452 -1.2637265 -0.40027264
0002e0 8c 3d 91 bf 6c 98 87 bc 94 6a e8 be fc ca c9 3c
       -1.1346908 -0.016552173 -0.45393813 0.024632923
0002f0 d8 da e7 be e2 91 13 bf 84 ed e6 be 16 4f 19 bf
       -0.45284152 -0.57644475 -0.45103085 -0.598863
000300 25 bc 09 3f 67 d6 9a 3f d8 c4 a4 be 2a 0e d7 3d
       0.5380271 1.209668 -0.3218143 0.105007485
000310 fe 3c ff be 56 6e 7f 3e cf ea 90 bf 32 b1 6d bf
       -0.4985122 0.24944434 -1.1321658 -0.92848504
000320 da f4 b0 3d c6 e7 06 3f 7c 7a 12 3f 08 5b bd 3c
       0.08640452 0.5269741 0.57218146 0.023114696
000330 71 67 ce 3e 20 9a 05 bf 1a 32 89 be 75 f2 ac 3d
       0.40313295 -0.521883 -0.26796037 0.084446825
000340 79 39 a7 be 16 a8 1c c0 52 20 45 bf b4 54 1e 40
       -0.32661036 -2.4477592 -0.7700244 2.4739199
000350 aa 96 a0 3e 4e 62 c5 bd 14 f1 7e bf ae 77 17 40
       0.31364948 -0.09637891 -0.99586606 2.3666797
000360 d5 52 47 be 41 ab 8a be 0e b3 72 be 09 73 d3 3d
       -0.19465192 -0.2708378 -0.23701116 0.103246756
000370 78 6b 41 bf 8d 8a 9e bd 33 f5 d1 3e 22 ec 5c be
       -0.7555461 -0.0774127 0.41007385 -0.21574453
000380 20 85 71 3d 28 8f 5c bf e8 ec d9 bd ca 16 bf be
       0.05896485 -0.8615594 -0.106408894 -0.37322074
000390 ac 87 b8 bc 72 a5 51 be d3 12 ed 3d e9 e2 38 3e
       -0.02252563 -0.20473269 0.11575856 0.1805531
0003a0 b0 22 1b 3e 18 b9 eb 3e dd 96 27 bf 83 ad 06 3e
       0.15149951 0.46039653 -0.65464574 0.13152127
0003b0 f9 f2 c2 bf 46 cd 5f bd 18 66 37 c0 0d c1 2b 3e
       -1.5230399 -0.054639123 -2.8656063 0.16772862
0003c0 9d 5a 84 be 48 08 5c be bd a9 1f 3f da ee 07 3e
       -0.25850382 -0.21487534 0.62368375 0.13274708
0003d0 a5 f4 a7 3d 54 3b 84 bc 68 03 17 3e 4d d3 15 bb
       0.08200959 -0.016141571 0.14747393 -0.002286154
0003e0 2f e2 1a be c3 e9 c6 be 01 2d d7 be 9d 79 2b 3d
       -0.15125345 -0.3885022 -0.42026523 0.041864026
0003f0 c8 6f 4a 3e 0d cc 87 be 3d c3 01 bf 93 51 f0 3b
       0.19769204 -0.26522866 -0.50688535 0.007333943

bias f4 [50]
000000 9e fc c5 40 c4 19 ce 40 74 e5 dc 40 dd 24 ba 40
       6.187087 6.440645 6.9030094 5.817
000010 69 75 39 41 d8 12 65 40 91 1a 2b 41 16 b8 c6 40
       11.591165 3.5792751 10.693986 6.2099714
000020 eb f4 8e 40 d5 39 14 41 47 20 98 40 bd fb d1 40
       4.467397 9.264119 4.75394 6.56198
000030 9c 8a 13 41 15 d5 bb 40 89 77 a5 40 42 c5 bf 40
       9.22134 5.869761 5.1708417 5.9928293
000040 a3 3a 32 41 8e 10 83 40 97 24 36 41 80 e1 b6 40
       11.139316 4.095771 11.383933 5.715027
000050 77 40 17 41 9e f8 0e 41 83 6b 00 41 dd 36 44 40
       9.4532385 8.935698 8.026248 3.0658486
000060 7c 63 f0 40 bf b4 0a 41 c5 d9 30 41 a7 21 83 40
       7.512144 8.669127 11.053166 4.097858
000070 d0 de 39 41 57 ea b2 40 42 5f ff 40 3f aa 31 41
       11.616898 5.591106 7.980378 11.104064
000080 8d f7 38 41 6e ba 0e 41 ff cc 15 41 de 19 96 40
       11.560437 8.920515 9.362548 4.6906576
000090 97 b1 37 41 74 56 0c 41 00 58 1c 41 9e 00 de 40
       11.480857 8.771107 9.771484 6.9375753
0000a0 59 33 b1 40 60 94 1f 41 90 c7 a7 40 58 37 b9 40
       5.537518 9.973724 5.2431107 5.788006
0000b0 00 19 3a 41 98 75 25 41 19 a1 28 41 8c e0 ea 40
       11.6311035 10.341209 10.5393305 7.3399105
0000c0 28 66 c5 40 ea 45 f2 40
       6.1687202 7.5710344

weight f4 [50]
000000 4e 55 01 42 d2 93 01 42 9c fc 01 42 ff 38 02 42
       32.333305 32.394356 32.49669 32.55566
000010 94 13 fe 41 e9 81 01 42 3f 5b f8 41 53 36 02 42
       31.75956 32.376865 31.044554 32.55305
000020 e0 3b 03 42 5a 3c f9 41 e6 ae 02 42 59 ea 02 42
       32.80847 31.154469 32.6708 32.728855
000030 7b bd fb 41 f4 26 04 42 98 9f 01 42 77 dd 02 42
       31.46752 33.03804 32.405853 32.716274
000040 81 73 fe 41 67 aa 02 42 87 d0 fc 41 1e d9 03 42
       31.806398 32.66641 31.60182 32.96203
000050 11 e1 fd 41 6f 2d 01 42 d4 01 fe 41 43 23 03 42
       31.734896 32.29437 31.750893 32.784435
000060 27 5b ff 41 81 d4 fc 41 c9 54 fe 41 60 58 02 42
       31.919508 31.603762 31.791399 32.586304
000070 e5 f2 fd 41 8a 2a 03 42 76 54 00 42 56 9e ff 41
       31.7436 32.791542 32.08248 31.952312
000080 a0 b7 fc 41 09 57 fc 41 e1 b9 fb 41 ff 1d 04 42
       31.58966 31.542498 31.465761 33.029293
000090 57 d4 ff 41 fb bc fb 41 80 56 fe 41 ba 85 01 42
       31.978682 31.467276 31.792236 32.380592
0000a0 9e 55 02 42 f6 9c fd 41 3f 6d 03 42 c9 4c 02 42
       32.58361 31.701641 32.856686 32.574986
0000b0 bc 11 fa 41 ad e8 fc 41 b3 1c fc 41 f9 40 fc 41
       31.25866 31.613611 31.514013 31.531725
0000c0 f7 a8 01 42 4e bc ff 41
       32.415005 31.966946

bias f4 [50]
000000 db d4 72 c2 81 97 72 42 e0 5e 73 c2 76 d7 72 42
       -60.707867 60.647953 -60.84265 60.71041
000010 29 89 72 c2 03 34 73 42 55 b1 72 c2 ab 19 73 42
       -60.633945 60.800793 -60.673176 60.775066
000020 9e 9a 72 42 da 7f 73 c2 4e 97 72 42 95 80 73 42
       60.650993 -60.874855 60.64776 60.87557
000030 4e c4 72 c2 8c 41 73 42 c1 fe 72 42 67 4c 73 42
       -60.691704 60.81401 60.748783 60.82461
000040 11 54 73 c2 0e a1 73 42 60 e3 72 c2 37 f2 72 42
       -60.832096 60.90728 -60.722046 60.736538
000050 19 89 73 c2 ff d7 72 c2 a9 4d 73 c2 df 42 73 42
       -60.883884 -60.710934 -60.82584 60.815304
000060 36 f5 72 c2 8e 61 73 c2 91 75 73 c2 a7 b7 72 42
       -60.739464 -60.84527 -60.86481 60.679348
000070 4f ea 72 c2 a5 b6 72 42 0f c5 72 c2 e0 88 72 c2
       -60.728817 60.678364 -60.69244 -60.633667
000080 61 75 73 c2 73 3a 73 c2 b8 72 72 c2 a2 8e 73 42
       -60.864628 -60.80708 -60.61203 60.88929
000090 c1 69 73 c2 e3 c1 72 c2 6c 85 72 c2 a8 b6 73 42
       -60.853275 -60.689342 -60.630295 60.928375
0000a0 17 2b 73 42 49 da 72 c2 8a 7b 73 42 15 aa 72 42
       60.79208 -60.71317 60.870644 60.666096
0000b0 d8 c3 72 c2 72 c9 72 c2 21 1e 73 c2 77 2d 73 c2
       -60.691254 -60.696724 -60.779423 -60.7944
0000c0 c9 14 73 42 61 ec 73 42
       60.770298 60.98084

running_mean f4 [50]
000000 02 88 c7 40 58 f2 bf 40 54 b4 cc 40 63 d0 3b 40
       6.2353525 5.998333 6.3970127 2.934594
000010 54 f0 4f 41 89 02 06 40 6d 93 39 41 6f ae 5d 40
       12.996174 2.0939047 11.598493 3.4637716
000020 2f 9b f3 3f c5 82 28 41 70 73 10 40 6a 50 89 40
       1.9031733 10.531926 2.2570457 4.291066
000030 6e 36 39 41 06 82 22 40 6f c0 55 40 d4 ed 86 40
       11.5757885 2.539186 3.3398702 4.2165318
000040 43 a6 43 41 b2 b7 24 40 e8 50 36 41 28 dd a5 40
       12.228091 2.5737119 11.3947525 5.1832466
000050 42 7c 1b 41 9e a4 1c 41 f4 62 d2 40 d9 b5 80 3f
       9.717836 9.79019 6.5745792 1.0055496
000060 97 e8 c6 40 6d 18 1a 41 69 ec 41 41 04 d7 fb 3f
       6.2158923 9.630963 12.120217 1.9674993
000070 92 29 3d 41 6e 9c 67 40 3f 08 ef 40 a6 90 3d 41
       11.822649 3.6189227 7.4697566 11.847815
000080 db ef 43 41 25 61 23 41 2a 21 12 41 a0 96 3f 40
       12.246058 10.211217 9.133097 2.9935684
000090 1c 3a 3f 41 50 73 1a 41 57 cc 2a 41 6c 8f d2 40
       11.951687 9.653152 10.674888 6.5800076
0000a0 7e cd 6a 40 e8 ba 34 41 23 d6 85 40 11 f2 4f 40
       3.6687922 11.295631 4.1823897 3.2491496
0000b0 5e 33 4b 41 8d 4c 2d 41 54 a9 32 41 44 6a f0 40
       12.700041 10.831189 11.16634 7.512972
0000c0 bf 23 97 40 ea 2d d6 40
       4.7231135 6.6931047

running_var f4 [50]
000000 d4 1c a3 42 f6 3d f7 41 76 1c 1f 41 38 87 73 41
       81.556305 30.905254 9.944448 15.220512
000010 e5 18 a4 40 fa ed a7 41 03 c9 2f 41 6c 57 c2 41
       5.128039 20.9912 10.986575 24.292686
000020 0e 28 21 41 54 43 cc 41 51 db b3 41 c6 f5 17 42
       10.072279 25.532875 22.482088 37.990013
000030 4a 86 ea 41 90 de 83 41 80 e0 1e 42 8c e0 46 42
       29.31557 16.483673 39.71924 49.719284
000040 94 01 ec 40 ed 42 f4 41 cb 5a c4 40 a4 85 35 42
       7.3751926 30.532679 6.136083 45.38051
000050 cc e7 ca 40 ce c9 ff 40 26 db 33 41 1a 0a 84 41
       6.3407955 7.9933844 11.241003 16.504932
000060 6a d8 00 41 57 e2 10 42 7b c1 18 41 18 4f 8b 41
       8.052835 36.221035 9.547236 17.41362
000070 17 b8 66 40 5d 73 03 42 cd ef a1 40 f9 1e 8c 40
       3.604986 32.86266 5.0605226 4.378781
000080 bd 33 a0 40 09 86 cf 41 68 46 fc 40 4d 68 d6 41
       5.0063157 25.940447 7.8835945 26.800928
000090 4e d6 9d 40 e1 bd fb 41 3d b9 18 41 92 22 f1 41
       4.9324102 31.467714 9.545224 30.14188
0000a0 fc b5 34 42 e1 c0 3c 41 ff a7 6e 42 e6 6a e7 41
       45.17772 11.79709 59.66406 28.927197
0000b0 df 56 38 41 50 e2 ea 40 55 4b 58 41 58 b8 5e 41
       11.521209 7.340126 13.518392 13.920006
0000c0 36 cf 06 42 01 c4 f6 41
       33.702354 30.845705

weight f4 [1, 50]
000000 a5 4d 68 c2 e6 46 68 42 0f f9 67 c2 c6 f2 67 42
       -58.075825 58.069237 -57.99322 57.987083
000010 a9 90 68 c2 aa c3 67 42 0d 40 68 c2 28 8c 67 42
       -58.14127 57.94108 -58.06255 57.88687
000020 2d 59 68 42 ae 9d 67 c2 41 45 68 42 b3 d2 67 42
       58.087086 -57.903984 58.06763 57.95576
000030 ff 55 68 c2 08 d8 67 42 29 ea 67 42 4d d3 67 42
       -58.08398 57.960968 57.978672 57.95635
000040 ae dc 67 c2 82 94 67 42 dd 3f 68 c2 93 4c 68 42
       -57.965508 57.895027 -58.062366 58.07478
000050 a7 ae 67 c2 02 6b 68 c2 ed ae 67 c2 07 82 67 42
       -57.92056 -58.1045 -57.920826 57.87698
000060 30 60 68 c2 2b b4 67 c2 31 bf 67 c2 68 33 68 42
       -58.093933 -57.925945 -57.93671 58.0502
000070 72 20 68 c2 5a 5b 68 42 02 88 68 c2 ba 52 68 c2
       -58.031685 58.08921 -58.13282 -58.080788
000080 b0 de 67 c2 62 11 68 c2 61 89 68 c2 90 7d 67 42
       -57.96747 -58.016975 -58.13416 57.87262
000090 5e e6 67 c2 9c 57 68 c2 95 ae 68 c2 08 7f 67 42
       -57.974968 -58.085556 -58.17049 57.874054
0000a0 e1 d1 67 42 01 1b 68 c2 32 a0 67 42 58 4c 68 42
       57.95496 -58.02637 57.90644 58.074554
0000b0 51 29 68 c2 1c 18 68 c2 cd 0b 68 c2 ff fd 67 c2
       -58.040348 -58.023544 -58.011524 -57.998043
0000c0 f4 0a 68 42 69 73 67 42
       58.010696 57.862705
